checkpoints/first_full_training/checkpoint.pth.tar (torch, 14537 bytes, 2 tensors)

module.linear.weight f4 [1, 1536]
00000000: 6203 403c 7c52 d1bc 7e8c 3d3d 2d75 99bb
00000010: 3e43 95bb e9c4 e5bb 9ae1 013d 5545 6eba
00000020: 880d 93bb cbff c53b 6dfa 17bc 370d 843d
00000030: c387 8d3b b264 593c e84f 9bbc 83c4 4fbb
00000040: 4425 bdbc f5df 3bbd c7a7 f1bc bd7b de3a
00000050: d992 ef3c 56d4 e23c d561 f5bc 0c0e 1a3b
00000060: e0a4 fbbc 8816 3c3d 45a8 103c ae45 30bb
00000070: bad2 f23c 3fb9 5a3b d782 1ebd 63af 0fbd
00000080: 37b8 933b 92bd 18bc d313 dabc 7366 bf3c
00000090: 2759 45bd f936 503a aaaf 1a3c 8c11 9aba
000000a0: 1e27 423a 40ef b9b8 b4a3 20bc 21cc 463d
000000b0: 0884 153c 9c3f b23c fc01 6a3c adc7 60ba
000000c0: 5c4d 053d 1c95 b6bb 1871 93bc 4d05 e3bc
000000d0: 16b6 443c a586 ee3c 3356 1e3d 6b0a 383d
000000e0: 525e 323c 70ee 01bb e3f5 29bd 24a0 f6bb
000000f0: 1bd6 f43b 7a34 8bbc 7953 f63b 92a3 aabb
00000100: 74b2 e7bc eaba 8f3c d9e4 d73c 53dd fcbc
00000110: d934 20bb bf5b 003c 519f 0abd 0c59 39bb
00000120: 035c a23c 8167 1f3b dca5 113c 3f03 68bb
00000130: 9cfc 29bb e260 343b acd2 d2bc 80ca 093d
00000140: 9953 85bc 3b09 38bb 5569 bb3c 3b2a 253d
00000150: de60 04bd fdca ee3b da44 e33b f3d7 14bd
00000160: ca5b e73c d2aa 813c b089 b83c c43d 363d
00000170: 80fe 363d 127c 46bc 0fa4 473c d1e6 033c
00000180: 75cb 25bc a609 d93c 6a90 d23c 40da 19bd
00000190: a761 adbc da3c 89bc 03ac 5b3b c3db bdbc
000001a0: f3d5 ac3b aa13 973b de3a babc 0ae5 b8bb
000001b0: 391f e23c 3efc 073c 46bf f9bb 8fa0 8cbc
000001c0: 6ec8 06bd 19fd b73c 8195 6cbb b5a7 65bd
000001d0: 0571 b4b9 93db b43c 1edc 043c e669 06bd
000001e0: ca26 163d 910c abbc 46a8 f0bb 7ccb a53b
000001f0: 33d4 7b39 9960 153d 6c08 33bd fc83 a1bc
00000200: be99 a13b d97d eb3b 3f13 083d b53a 8a3c
00000210: 9cdb 6ebc a3db af3c 4936 b43c b8c1 ba3b
00000220: ac7e 973c 67d9 06bb 6ac3 f2bc bdf1 243d
00000230: dc68 cebc 23a2 a43c 53ba bebc 1578 bbbc
00000240: 8b27 23bb 16f5 173d bb14 673d a928 0fbc
00000250: 6abf 00bd b16d a33c ecaa 9d3a e267 6d3b
00000260: a9b8 293d e808 ef3c cfd0 c7ba c4a4 003d
00000270: 3da0 c43c 547c 233c 3cbf 87bb 2a0d 513d
00000280: 9159 783c 6889 3ebd 35b0 0bbc e460 683c
00000290: 08ad a2bc fedc e73c 1830 23bc 07cc 583b
000002a0: 0540 e0bc af18 4abd 3379 763c 4af2 0fbd
000002b0: 71e1 dbb9 0bff 00bc 9f99 85bc 2771 88bc
000002c0: b58d 653c 8f08 59bc abbf b7bc 4e2c 213d
000002d0: 1f7e 1c3d f0dd a5bc 1c96 913b 3134 2e3d
000002e0: 53d6 2b3d 62aa d6bc aac0 edbb 2b22 96bc
000002f0: ae37 5c3c ceef 253c 4a69 e4bb 4eda 8d3c
00000300: 867c 323d b877 023d 9e2d 43bc e827 053c
00000310: 8f46 0dbd b2ec 863c 510e ee3c 0b75 953a
00000320: 4d07 5e3c 5054 263c 5960 6a3d 9426 a1bd
00000330: b4a8 28bc 1c71 71bc 3a3e 0ebd 2b58 903b
00000340: cde1 bb3b 11d0 11bc 7f72 99bc 6b90 313c
00000350: ab9f bdbc edba aebb afef 1d3c cb29 183d
00000360: 2f5b 1fbd 896a cabb 29c6 cdbc 3e2b 833c
00000370: 962f b3bb 5c2b f93c dbc5 19bd b879 d9bc
00000380: de97 8d3d 7b74 b2bb 4399 f53c f954 a03c
00000390: c0eb 073d f3d1 b6bb c713 0a3c 3c61 d43c
000003a0: 30fe 443c 6eba 56bc 9863 203b 572d 3c3d
000003b0: aacd dd3c b441 973b ee8f 143c 918c 173c
000003c0: 9e09 c63c 0075 e5bc 9320 213d f401 b4bc
000003d0: 2e17 08bd 6113 553c a18c 87bd 7d97 64bb
000003e0: e6fc 703c 3bfa 18bd 72ca 7fbc 00ce 983c
000003f0: 1a2c 463c 6379 223c 6342 90bc 43a8 b4bc
0.0117195565 -0.025552027 0.046276562 -0.004683158 -0.004555135 -0.007011999 0.03170929 -0.0009089311
-0.004487697 0.006042456 -0.009276015 0.06447833 0.0043191626 0.013268637 -0.018959 -0.0031702823
-0.023089059 -0.04586788 -0.029498948 0.0016974133 0.029244827 0.02768914 -0.029953877 0.0023506908
-0.030718267 0.045919925 0.008829181 -0.0026897 0.029641498 0.0033374575 -0.038698997 -0.03507937
0.004508044 -0.009322541 -0.026620781 0.023364281 -0.048180725 0.0007942762 0.009441296 -0.0011754497
0.00074063416 -8.866051e-05 -0.009804655 0.048534516 0.009125717 0.021758847 0.0142827 -0.0008574676
0.03254448 -0.0055719744 -0.017998263 -0.027712489 0.012006303 0.029116938 0.038656425 0.04493181
0.0108867455 -0.0019825958 -0.04149426 -0.0075264145 0.0074718124 -0.016992796 0.007517275 -0.0052074874
-0.028283335 0.017545182 0.02635424 -0.030867254 -0.0024445562 0.007834374 -0.033843342 -0.0028281836
0.019819265 0.0024323168 0.008889642 -0.0035402325 -0.002593792 0.0027523567 -0.025735222 0.033640385
-0.016275214 -0.0028081674 0.022877375 0.040323477 -0.032318942 0.0072873817 0.006935698 -0.036338758
0.02824201 0.015828524 0.022526592 0.044492498 0.044676304 -0.012114542 0.012185111 0.008050636
-0.010119309 0.026493859 0.025703628 -0.037561655 -0.021164728 -0.01675265 0.0033519275 -0.02317608
0.005274528 0.0046104984 -0.022733148 -0.005642538 0.027602779 0.008299885 -0.0076216785 -0.017166404
-0.03290599 0.022459554 -0.0036099853 -0.05606814 -0.00034416482 0.022077357 0.008109121 -0.032815836
0.036658086 -0.020880016 -0.0073442785 0.0050596576 0.00024016276 0.036469076 -0.043709204 -0.019716255
0.0049316576 0.007186633 0.03322148 0.016873697 -0.014578726 0.021467036 0.021998541 0.0056993626
0.018493019 -0.002057636 -0.029634196 0.040269602 -0.025196485 0.020096844 -0.023282206 -0.022884408
-0.0024895396 0.037098967 0.056416254 -0.0087377215 -0.031432547 0.019949766 0.0012029088 0.003622525
0.04143587 0.029179052 -0.0015244725 0.031407133 0.024002189 0.009978373 -0.00414267 0.051037945
0.015158073 -0.04651776 -0.008525898 0.014183257 -0.019857898 0.02830362 -0.009960197 0.0033080594
-0.027374277 -0.049339946 0.015043545 -0.035143174 -0.00041938902 -0.007873307 -0.016308604 -0.016655518
0.014010836 -0.013246669 -0.022430262 0.039348893 0.038206216 -0.02024743 0.0044429433 0.042530242
0.041952442 -0.026204292 -0.0072556334 -0.01832684 0.013441009 0.010127975 -0.0069705592 0.01731601
0.043575786 0.031852454 -0.011912731 0.00812719 -0.034491118 0.016470287 0.029059561 0.0011402679
0.013551545 0.010151938 0.05722079 -0.07868686 -0.010294128 -0.01473644 -0.034727313 0.0044050417
0.0057337047 -0.008899705 -0.018731354 0.010837655 -0.023147425 -0.005332342 0.009639665 0.037149232
-0.03890532 -0.0061772508 -0.025118904 0.01601183 -0.005468319 0.030416183 -0.037542205 -0.026547298
0.06913732 -0.0054460145 0.029980307 0.019571768 0.033183813 -0.005579227 0.008427567 0.025925271
0.012023494 -0.013105972 0.0024473425 0.045941677 0.027075607 0.0046159867 0.009067519 0.009249822
0.024174508 -0.028009892 0.039337706 -0.021973588 -0.03322523 0.013005109 -0.0661862 -0.0034880333
0.014708733 -0.037348013 -0.015612232 0.018652916 0.012095476 0.009916636 -0.01760978 -0.02205289

momentum_buffer f4 [1, 1536]
00000000: 495b f1bc 7c00 0a3c f1b7 ec3b 1e84 25bd
00000010: f30b a5bc 1d6e 903c 85ea 053d f41c 14bb
00000020: c72c 3b3d d8ad db3c b886 8cbd 5a85 9d3f
00000030: c879 e93c 1230 0fbc 9472 e63c 7ad6 293e
00000040: 3cf0 283d 3dd3 5fbc 0453 6f3c 3ac5 f0bb
00000050: aeaf 3cbd d9d7 8fbc d3aa 21bc 80dd 7fba
00000060: c2bf 083d 2068 e2ba 2e02 24bd cd5c 4cbd
00000070: e64c 01bb 6864 323d cee4 3bbb 6670 a53c
00000080: e38c c03c a7ec 0cbd 4c73 20bb 56e9 d43b
00000090: 7668 93bc de70 433d 907f 8e3c 6e27 333d
000000a0: a0e8 6b3a 8fc6 06be a8ce 5e3a 80a9 7abd
000000b0: 01d9 18bd 2608 8e3d 6064 103c 7494 dabc
000000c0: 52ea 54bd d5be e4bc 6427 14bd 74de 7a3d
000000d0: aa46 863c 8b94 44bc a5df ad3c e295 863c
000000e0: 34e7 f0bd e432 893a 34b8 763c 448b d63c
000000f0: acb9 843c a0fb a0bc 194c 413c c3df c4bc
00000100: 6772 d6bc d893 df3a 035d 08bd 124d d3bc
00000110: d4ab 58bc a872 7cbd f045 433c 782b 2c3c
00000120: 5330 92bd bdff 62bd 650c 083c acae 09bb
00000130: 333e 9b3b c187 1d3d 0635 9c3d 9147 9bbc
00000140: b493 e73c a046 3f3d 38d1 053d 653b 29bc
00000150: 6886 c7bb 16cd 3dbd 2166 7abb 0b1c b53c
00000160: 4726 1a3c 1535 983d ee2c 0cbd 0a45 18bd
00000170: 072c 74bc 7afa 82bd baa6 483d e24e 21bc
00000180: 0de7 983c 2191 fcbc b775 a7bc b3e0 803d
00000190: 0d30 b73d a9aa d73c 7db7 093d 3168 00bd
000001a0: 9c14 19bd 96bc 003d 3e2a a43c 32a9 8cbb
000001b0: fe32 d7bd f063 863c b028 be3b 10f4 afba
000001c0: 7728 523d c459 173c f414 c3bc 19d3 02bd
000001d0: 5b99 07bd 5685 c83c 5e1f d2bd 0dc3 2d3c
000001e0: e643 24bd 2e18 383d ed8d aebc fa8d da3b
000001f0: 8853 c0ba 7747 173d 037f 923d 6202 37bd
00000200: e7df b5bc 8059 daba 3b6b 6dbb 4ed4 663d
00000210: c483 4bbc 11bb cb39 e203 6ebc c9c8 aabd
00000220: 4a27 11bd eafc e3bc 62c7 2a3d e3d6 5bbc
00000230: e632 08bc 5626 893d a610 6fbd 58e9 3fbc
00000240: 017c 343b b435 c83a 0a80 f8bd fc0b 863c
00000250: 64ed 86bd 91fe d43c 4ad2 033c f4f6 bd3c
00000260: 80ce 863c ca8f 7abd 361a 8abc 544b 42bc
00000270: 781a 293d c29b 21bd 0eea 04bd 1738 a6bc
00000280: fd30 1fbc a18b 6abb 7406 30bd b9a4 a0ba
00000290: 8ae2 f53c 0e52 f13d 3c4f c6bc 56bc 8fbc
000002a0: ca30 9b3b ed7e 823d 4e52 9dbd 5c42 8fbc
000002b0: 4c47 123d 0ce6 95bc 382a 913b cc57 8ebd
000002c0: 2ecc 26bc c454 54bd 60ce 14bf 00c8 83bb
000002d0: 629a b2bd 3806 d0bb c6d1 d1bb 82cc 78bc
000002e0: 2fa9 0c3c d0ad 513c e138 a2bc 9818 493d
000002f0: 6b89 2c3d 15a9 1bbd 67e8 d43c 0639 eabd
00000300: f6e2 01bd 3669 7dbd a7de 123d d8dc e43a
00000310: e740 253d 53c7 d33c c811 ddbc 6a7c 8ebd
00000320: 7076 8f3d 8214 1ebd c08d c6bc e205 523d
00000330: ba9c 69bd a6d5 5c3b 48b4 44bb 0e5b ad3d
00000340: bbaa 4cbd fb52 263d d28e 0f3d 97cb ddbc
00000350: 4c6a 7dbc 6820 15bd 30a8 63bd 0c1a 2bbd
00000360: 31c3 163d 7afc 8b3c ea72 4ebc ec9e f33c
00000370: f29c a8bc 1143 ebbc 8b0d 2e3d 99ec ed3c
00000380: 28f7 543a 9d8d 933b 4b9a 1e3c cad7 1c3d
00000390: a70f 42bd 4e01 613c 86a1 c13c 96ec 1c3d
000003a0: b609 4a3c f986 95bb f158 f33c 8ea4 12bd
000003b0: 44da a9bb 6047 ad3d 9c65 75bd 2923 02bd
000003c0: 718d 7cbc 8ed0 31bc bc5a 153d 8778 f83c
000003d0: e916 8dbc b107 5cbc bd09 23bd 724d 623d
000003e0: 1bd6 c5bc 5e7a 853c e841 023c 18b2 62bd
000003f0: 3ed9 32bd c8dd 09bd 9e03 243d 967b 483b
-0.029462473 0.008422967 0.007224076 -0.0404092 -0.0201473 0.017630631 0.03269436 -0.0022600265
0.045697 0.026816294 -0.06861633 1.2306321 0.028500453 -0.008739488 0.028130807 0.16585723
0.04124473 -0.013661203 0.014607195 -0.00734773 -0.04606598 -0.017558979 -0.009867388 -0.0009760484
0.033386 -0.0017273463 -0.04004114 -0.04989319 -0.0019729673 0.043552786 -0.0028670314 0.020195197
0.02350468 -0.034405377 -0.0024482785 0.0064975424 -0.017994147 0.04771506 0.01739481 0.043738775
0.00089992024 -0.13161682 0.0008499422 -0.061196804 -0.037316326 0.06935148 0.008812994 -0.026682116
-0.051981278 -0.027923027 -0.03617038 0.061247304 0.016391117 -0.011998306 0.021224806 0.016428892
-0.117628485 0.0010467437 0.015058566 0.026189454 0.016201816 -0.019651234 0.011797928 -0.02403248
-0.026177598 0.0017057611 -0.033291828 -0.025793586 -0.013224561 -0.061632782 0.01191853 0.010508411
-0.07138123 -0.055419672 0.008303736 -0.0021008654 0.0047376393 0.038459543 0.07627301 -0.018955024
0.028268673 0.046698213 0.03267023 -0.010329102 -0.0060890205 -0.046338163 -0.0038207846 0.022108098
0.00940854 0.074319996 -0.034222536 -0.037175216 -0.014903075 -0.06395431 0.048987128 -0.009845467
0.018664861 -0.030830922 -0.020441873 0.06292858 0.08944712 0.026326494 0.033622254 -0.031349365
-0.03737317 0.03142985 0.020039674 -0.0042926306 -0.10507773 0.016405076 0.00580319 -0.0013424177
0.05130812 0.00923771 -0.023813702 -0.0319396 -0.033105236 0.024477642 -0.10259889 0.010605586
-0.040103815 0.044944935 -0.02130791 0.006669757 -0.0014673332 0.03693339 0.07153132 -0.044680007
-0.022201492 -0.0016658753 -0.0036227244 0.056354813 -0.012421552 0.00038858553 -0.014527293 -0.08339078
-0.03543786 -0.02783056 0.041694053 -0.013417932 -0.008312916 0.06696765 -0.058365487 -0.011713348
0.0027539732 0.0015274794 -0.121337965 0.016363136 -0.065882474 0.026000293 0.008045742 0.023189045
0.016455889 -0.061172284 -0.016858201 -0.01185878 0.04128501 -0.039455183 -0.032449774 -0.020290418
-0.00971627 -0.0035788792 -0.042974904 -0.0012256122 0.030015249 0.11783229 -0.024207704 -0.01754586
0.0047360407 0.063718654 -0.07681714 -0.017487697 0.035712525 -0.018298171 0.0044300817 -0.0695034
-0.010180516 -0.05183865 -0.58127403 -0.0040216446 -0.087208524 -0.0063483976 -0.006403181 -0.015185477
0.008585258 0.012797788 -0.019802513 0.04909572 0.04212324 -0.038003046 0.025989724 -0.114366576
-0.031710587 -0.061867915 0.03585687 0.0017460836 0.0403451 0.025851881 -0.026986018 -0.06957324
0.07005012 -0.038593777 -0.024237514 0.05127514 -0.05703423 0.003369668 -0.0030014683 0.08464633
-0.04996751 0.04060648 0.035048313 -0.027074618 -0.015467238 -0.036407858 -0.055580318 -0.041772887
0.036807243 0.017088164 -0.01260064 0.029738866 -0.02058265 -0.028718503 0.042493384 0.029043483
0.00081239874 0.0045029656 0.009680341 0.03829173 -0.04737821 0.013733221 0.02363659 0.038311563
0.012331417 -0.004563209 0.029705497 -0.035801463 -0.00518349 0.08460879 -0.059911355 -0.031771813
-0.015414582 -0.010852946 0.036463484 0.03033091 -0.017222838 -0.013429568 -0.03980421 0.05524964
-0.024149945 0.0162937 0.007950284 -0.055345625 -0.04366421 -0.033658773 0.040042512 0.003059124
