probe_fake_embeddings/checkpoint.pth.tar (torch, 14537 bytes, 2 tensors)

module.linear.weight f4 [1, 1536]
0	0x3c1ddad9	0.009634697
1	0xbc9422d3	-0.018083012
2	0xbbfd66b3	-0.00773319
3	0xbbb882aa	-0.0056308107
4	0x3c6e7140	0.014553368
5	0xbc890be7	-0.016729308
6	0xbb89ec6b	-0.0042090914
7	0xbcc20b4f	-0.023687033
8	0x3a557af4	0.00081436266
9	0x3cdd12fe	0.026986595
10	0xbb97b17d	-0.0046293125
11	0x3d1ff1ff	0.039049145
12	0x3c96e920	0.01842171
13	0x3b7efbbd	0.0038907372
14	0x3b789d1b	0.003793544
15	0xbbef28a6	-0.007298547
16	0xbcac1c6e	-0.02100965
17	0xbc240b0d	-0.0100124
18	0x3b6293a7	0.003457287
19	0x3caa1514	0.020762004
20	0xbb84a650	-0.0040481463
21	0x3c540761	0.012941212
22	0xbbba6137	-0.0056878584
23	0x3c39e975	0.011347164
24	0x3bf9a661	0.007618711
25	0xbc1e7441	-0.009671272
26	0x3c9f53af	0.019449083
27	0xbad4d08f	-0.0016236472
28	0xbca538e4	-0.02016873
29	0xbcc74911	-0.024326833
30	0xbcafda6d	-0.021466458
31	0xbc87bb65	-0.016568849
32	0x3c8a49f9	0.016880976
33	0xbcab1e39	-0.020888435
34	0xbc0dc5e9	-0.0086531425
35	0xbc4c0f02	-0.01245475
36	0xbcb6f548	-0.022333756
37	0xbc6b1605	-0.014348512
38	0x3b46d467	0.0030339004
39	0x3bba1df3	0.0056798398
40	0xbaa5dbcf	-0.0012654009
41	0xbced3669	-0.028956609
42	0x3b086397	0.0020811313
43	0xbc5cb66c	-0.013471227
44	0xbb674f84	-0.0035295198
45	0xbc8c49f5	-0.01712511
46	0x3c2dc3b9	0.010605746
47	0x3cb17489	0.021662014
48	0xbcb31d70	-0.021864623
49	0x3c2b084d	0.010438991
50	0xbd16ba33	-0.036798667
51	0xb91a2095	-0.00014698722
52	0xb9f3ac95	-0.00046477155
53	0x3c4aa2a4	0.012367878
54	0xbba325cf	-0.0049788724
55	0x3cdebc4e	0.0271894
56	0xbc20a06b	-0.009803872
57	0x3aead03f	0.0017914845
58	0x3a00a060	0.000490671
59	0xbcae839c	-0.02130299
60	0x3c106a81	0.008814455
61	0xbba68a49	-0.005082403
62	0x3bfc13ac	0.0076927748
63	0xbc648c86	-0.013949519
64	0xbd017dfb	-0.031614285
65	0x3c9342a3	0.01797611
66	0xbc3728f7	-0.0111792
67	0x3c90dd71	0.017683716
68	0xbca1739c	-0.019708447
69	0xbcba3fa0	-0.022735417
70	0xbbe3075f	-0.006928369
71	0xbc99f175	-0.018791893
72	0xbc527724	-0.012845788
73	0x3c352fdc	0.011058774
74	0xbc4d73e8	-0.012539841
75	0x3c1b0e90	0.009463921
76	0xbc854ba5	-0.016271422
77	0xbab1b7c1	-0.0013558791
78	0x3c91b917	0.017788453
79	0x3cb62c4b	0.022237917
80	0xbb118efe	-0.0022210474
81	0x3cabbee8	0.020965055
82	0x3b848ed3	0.0040453463
83	0x3c21c693	0.009874004
84	0x3ca168a9	0.019703226
85	0x3c9a64ff	0.018846987
86	0x3aa4435b	0.001253228
87	0x3ca71740	0.020396829
88	0xbc44afd1	-0.0120048085
89	0x3cd70972	0.026249621
90	0xbc95b8ba	-0.018276561
91	0x3c67b9c4	0.014143411
92	0x3cd99cbf	0.026564
93	0xbb9d42b4	-0.0047992114
94	0x3c2dc458	0.010605894
95	0x3a51b34d	0.0007999435
96	0xbbe1c223	-0.006889598
97	0xbce5807f	-0.028015373
98	0xbcd04f6d	-0.025428498
99	0xb9e3546b	-0.0004335971
100	0x3c7b071d	0.01532152
101	0x3b1a2cc5	0.002352522
102	0xbced18a0	-0.028942406
103	0xbbe9fdf5	-0.0071408697
104	0x3af76c24	0.0018876833
105	0x3cf2c2d0	0.02963391
106	0xbc032a3e	-0.008005677
107	0xbc466795	-0.012109657
108	0x3cc55e58	0.024092838
109	0x3c9d60ac	0.019211136
110	0x3cc4657c	0.023974173
111	0xbc7f7c80	-0.015593648
112	0xbc26ff9e	-0.01019278
113	0xbc97123a	-0.018441308
114	0x3c57e673	0.013177502
115	0x3b97639d	0.004620029
116	0xbc085378	-0.008320682
117	0x3c860e02	0.016364101
118	0x3c0fab13	0.008768815
119	0x3bedaef3	0.0072535216
120	0x3ce164bd	0.027513856
121	0xbbc35ec9	-0.005962227
122	0xba8de7ee	-0.0010826567
123	0xbcae8037	-0.021301372
124	0xbca5689f	-0.020191489
125	0xbcad3f43	-0.02114833
126	0xbb637161	-0.003470503
127	0xbcc19b05	-0.02363349
128	0x3bac4414	0.005257139
129	0x3c8816bf	0.016612409
130	0xbc337d59	-0.010955178
131	0x3ca44cc4	0.020056136
132	0xbc551d2d	-0.013007444
133	0xbb1786c3	-0.0023121096
134	0xbc683a3b	-0.0141740395
135	0xbc1beb16	-0.009516498
136	0x3c60e50c	0.013726484
137	0x3bb52c31	0.0055289497
138	0xbb210af8	-0.0024573188
139	0xbb9def51	-0.0048197885
140	0xbcb50543	-0.022097236
141	0x3babf03f	0.0052471454
142	0xbaca83e2	-0.0015450681
143	0x3baaa220	0.005207315
144	0xbbb100f5	-0.0054017254
145	0x3bda7e20	0.0066678673
146	0x3d316575	0.043309648
147	0xba1750bc	-0.0005772223
148	0x3b26339f	0.0025360358
149	0x3ce8251b	0.028338006
150	0x3b004d12	0.0019577187
151	0x3c94a4b1	0.018144937
152	0x3ca031e1	0.019555034
153	0x3c747f93	0.014922994
154	0x3bf3ad6f	0.0074364464
155	0x3c773771	0.015088902
156	0x3c5b9f8b	0.013404737
157	0xbc4def64	-0.012569282
158	0xbc6095a9	-0.013707557
159	0x3afa5a1a	0.0019100339
160	0xbc31d1e1	-0.010853262
161	0xbcd3fd9e	-0.02587777
162	0xbca668c4	-0.020313628
163	0xbc581dad	-0.013190669
164	0xbce5ba8e	-0.028043058
165	0x3ca1c9fb	0.019749632
166	0x3c9391b0	0.018013805
167	0xbc58573e	-0.013204394
168	0xbb89edb8	-0.0042092465
169	0x3c4745dc	0.012162652
170	0xbc6e353e	-0.014539061
171	0xbc30ab3b	-0.010783012
172	0xbca82b9e	-0.02052861
173	0x3c93ee79	0.018058049
174	0xbc328a7b	-0.010897274
175	0xbc333982	-0.010939004
176	0x3c308730	0.010774419
177	0x3b9ef504	0.0048509855
178	0xbcdafdf8	-0.02673243
179	0xbc17da52	-0.00926836
180	0xbc39f14a	-0.011349032
181	0x3bc32844	0.005955728
182	0xbad75c1a	-0.0016430647
183	0xbc08350c	-0.008313429
184	0x3b8b7dea	0.0042569535
185	0xbce3c03c	-0.027801625
186	0xb944a0c2	-0.00018751904
187	0xbcd54995	-0.026036063
188	0xbbd146c1	-0.0063866084
189	0xbca5ebc8	-0.02025403
190	0x3c9a66e8	0.018847898
191	0x3b79272d	0.0038017735
192	0x3b6c28b1	0.0036034996
193	0x3c91216a	0.017716128
194	0xbcb32869	-0.021869855
195	0xbbb208ea	-0.0054331915
196	0x3c8c93ca	0.017160315
197	0x3c54028e	0.012940062
198	0xbaf1f28d	-0.0018459127
199	0x3cd3daaa	0.025861103
200	0xbb614313	-0.0034372255
201	0x3c74e13a	0.014946276
202	0xbc56ca45	-0.013109748
203	0x3b99124b	0.00467137
204	0xbbcec43a	-0.006310013
205	0xbb867110	-0.0041028336
206	0xbb577aee	-0.0032879668
207	0xbc3beeb2	-0.011470484
208	0x3c26e5f3	0.01018666
209	0xbb69dfc4	-0.0035686353
210	0xbbe897cf	-0.007098175
211	0xb9d83a85	-0.0004124233
212	0xbc88c84a	-0.016697068
213	0x3c870c20	0.016485274
214	0x3bc3304c	0.005956685
215	0xbbf2b196	-0.007406424
216	0xbb892d85	-0.0041863346
217	0xbbee0c6d	-0.007264665
218	0xbccaf8b4	-0.024776794
219	0xbb573334	-0.0032836916
220	0x3c15ab9f	0.009135156
221	0x3b96c2b1	0.0046008457
222	0x3c3fec9b	0.011714126
223	0xbc0fe546	-0.00878269
224	0x3cf903df	0.030397354
225	0xbc87b839	-0.016567336
226	0xbc08abc0	-0.00834173
227	0xbb7b3952	-0.0038333726
228	0x3cca82b2	0.024720524
229	0x3a70fd7f	0.00091930473
230	0xbca4bd56	-0.020109814
231	0x3ca21ba2	0.019788567
232	0xbc6abbeb	-0.01432703
233	0x3ca51416	0.02015118
234	0xbc8b3096	-0.016990941
235	0x3cbaead5	0.022817055
236	0x3886e47a	6.432175e-05
237	0xbc078959	-0.008272492
238	0x3c046e1b	0.008082892
239	0xbc746cb3	-0.014918494
240	0xbc283970	-0.0102676
241	0xbcc33daa	-0.023833115
242	0x3ca8da0c	0.020611785
243	0xbccc548e	-0.024942663
244	0x3b98a05e	0.004657789
245	0x3c204c4f	0.009783818
246	0x3b999366	0.0046867607
247	0xbcd368f4	-0.025806881
248	0xbc412c1e	-0.0117903035
249	0x3c122b5d	0.008921471
250	0xbc1f29e8	-0.009714581
251	0x3ccce41e	0.025011119
252	0x3ca969a5	0.020680258
253	0x3b8be9bd	0.004269807
254	0x39374eb8	0.00017481565
255	0xbc946b77	-0.01811765

momentum_buffer f4 [1, 1536]
0	0x3e289c65	0.1646591
1	0x3d02f23f	0.031969305
2	0xbe37947a	-0.17927733
3	0xbddb7262	-0.10715176
4	0x3ebaaeb7	0.36461422
5	0xbd63a726	-0.055579327
6	0xbe81cbe6	-0.25350875
7	0x3e0c444c	0.13697928
8	0x3ebf9552	0.3741861
9	0xbe6326f9	-0.22182836
10	0x3c98ae90	0.018637925
11	0x3f40c798	0.75304556
12	0xbe015209	-0.1262895
13	0xbe3b9772	-0.1831949
14	0x3e8a7ff9	0.2705076
15	0xbecd7a41	-0.40132335
16	0x3ebc9fa5	0.3684055
17	0x3ddffe36	0.10937159
18	0x3cf95372	0.030435298
19	0xbd35e917	-0.044411745
20	0xbf1ebcc2	-0.6200677
21	0xbec367e6	-0.38165206
22	0x3f0b07a8	0.5430856
23	0x3e6b4930	0.22977138
24	0x3eb920f5	0.36157957
25	0xbf24aeb3	-0.6432907
26	0x3cd81cd8	0.026380941
27	0xbe269b18	-0.16270101
28	0xbe82f91c	-0.2558068
29	0x3c5cc210	0.0134740025
30	0x3e2f589b	0.17123644
31	0xbc953ff5	-0.018218974
32	0xbbfb1a20	-0.0076630265
33	0xbe979834	-0.2960831
34	0xbe8e0684	-0.27739346
35	0xbdbfcae0	-0.09364867
36	0x3e6570da	0.2240633
37	0x3e990c41	0.2989216
38	0xbc9dfe76	-0.019286375
39	0x3d43ccc0	0.047802687
40	0x3d83710f	0.064180486
41	0xbe84e4d9	-0.25955847
42	0xbd8e709a	-0.06955071
43	0xbe8bb928	-0.272897
44	0x3e387979	0.18015088
45	0xbc076c90	-0.008265629
46	0x3ddd6662	0.108105436
47	0xbd2596b3	-0.04042692
48	0xbe87c3dc	-0.26516616
49	0x3c85a40e	0.016313579
50	0x3f280dc8	0.6564603
51	0x3ed0ef71	0.4080768
52	0x3eb88816	0.36041325
53	0xbcf70356	-0.030152958
54	0xbee4a8e6	-0.4466011
55	0xbf8943c8	-1.072381
56	0xbe2f1112	-0.17096356
57	0xbcc948a2	-0.024570767
58	0x3e88fbc6	0.26754588
59	0xbe23e6a9	-0.16005959
60	0x3e6827c7	0.22671424
61	0x3d206f5a	0.039168693
62	0x3cb3ebcd	0.021963025
63	0x3dfa46bc	0.12220523
64	0x3f2343a7	0.63775104
65	0xbd0d5da8	-0.034513146
66	0xbec642d2	-0.38722855
67	0x3e139591	0.14412524
68	0x3df0ba07	0.11754232
69	0xbe61ef74	-0.22064
70	0xbd870a48	-0.06593758
71	0x3daf1bca	0.08550222
72	0x3e3c240a	0.18373123
73	0xbeaa91a3	-0.33314237
74	0x3e3df1f8	0.18549335
75	0x3ea45314	0.32094634
76	0xbea9f636	-0.33195657
77	0xbe7f1ee2	-0.24914125
78	0x3e55ae73	0.20867328
79	0xbf1e985f	-0.6195125
80	0x3e6cf83e	0.23141572
81	0x3dae9e48	0.085262835
82	0xbdcfa2ac	-0.10138449
83	0xbe31cbf8	-0.17362964
84	0x3e2589c0	0.16165829
85	0xbe1663f4	-0.14686567
86	0xbd3b2d7f	-0.045697685
87	0x3e1a4f29	0.1506926
88	0xbdc6e86f	-0.09712302
89	0xbcdb567c	-0.026774637
90	0xbc2b36ae	-0.010450048
91	0xbe99c063	-0.30029592
92	0xbf039ffa	-0.5141598
93	0x3dbed47d	0.09317873
94	0xbd876946	-0.06611876
95	0xbe00a4fb	-0.12562935
96	0xbcdcd034	-0.026954748
97	0xbd232c98	-0.03983745
98	0x3d74d2b3	0.05977125
99	0x3f58ad7b	0.8463971
100	0x3e023034	0.127137
101	0x3ea90164	0.33008873
102	0x3e292fe3	0.16522174
103	0xbd75053c	-0.059819445
104	0xbeafb3d5	-0.34316888
105	0x3d488da8	0.04896322
106	0x3dbfdcf7	0.093683176
107	0xbe6cb026	-0.2311407
108	0xbe91da55	-0.28486887
109	0x3ca0ea2a	0.019642908
110	0xbd08cd02	-0.033398636
111	0x3e52c50a	0.20582977
112	0x3e0c50ae	0.13702652
113	0xbe0411b5	-0.1289738
114	0x3edadd49	0.42746952
115	0x3f0cece5	0.5504897
116	0xbd631d60	-0.055447936
117	0xbe93aaed	-0.28841344
118	0xbecfe606	-0.4060518
119	0x3e64f907	0.22360621
120	0xbdfcfaf7	-0.12352555
121	0x3eee24c2	0.4651242
122	0xbe3c3470	-0.18379378
123	0xbd418378	-0.04724452
124	0x3d821148	0.063509524
125	0xbcb1a03c	-0.021682851
126	0x3eea1684	0.45720303
127	0xbd54e61c	-0.051977262
128	0x3e8423bb	0.2580851
129	0xbe17839b	-0.14796297
130	0xbe0ca25d	-0.13733812
131	0xbd80d92b	-0.062914215
132	0x3e3e2cd7	0.18571793
133	0xbe1ff623	-0.15621237
134	0x3ece2f95	0.40270677
135	0xbd7b79fa	-0.061395623
136	0xbd837405	-0.06418613
137	0x3e2a387d	0.16623111
138	0xbdfb2ff5	-0.122650065
139	0xbddb2d87	-0.10702043
140	0x3db5542c	0.08853945
141	0x3d450f60	0.048110366
142	0x3e37517f	0.17902182
143	0xbc1039f0	-0.008802876
144	0xbdb22114	-0.086977154
145	0xbe2935e5	-0.16524465
146	0xbf6f1695	-0.9339383
147	0xbd58713a	-0.052842356
148	0xbce73658	-0.028224155
149	0xbdb5d587	-0.08878618
150	0x3ead5280	0.33852005
151	0xbe35ba58	-0.17746866
152	0xbf362d1c	-0.7116258
153	0xbeffed6a	-0.4998582
154	0xbd9d05c6	-0.07667117
155	0xbe17e787	-0.14834414
156	0xbdfb4b1c	-0.12270185
157	0xbed09284	-0.40736783
158	0xbdb518ee	-0.088426456
159	0xbea85370	-0.32876158
160	0xbdb624e6	-0.088937566
161	0x3e7e48b2	0.24832419
162	0xbd528514	-0.051396444
163	0xbda34440	-0.07972002
164	0x3e88fc6d	0.26755086
165	0xbe3e6155	-0.18591817
166	0xba5d9540	-0.0008452721
167	0xbe623ba2	-0.2209306
168	0x3e3c2500	0.1837349
169	0x3e9c3981	0.30512622
170	0x3caf3a30	0.02139005
171	0x3da17749	0.0788408
172	0x3e15f01b	0.14642374
173	0x3e1a6c36	0.15080342
174	0x3df0b067	0.11752396
175	0xbe304871	-0.17215134
176	0xbc549dc8	-0.012977071
177	0x3e0dcc12	0.13847378
178	0xbee0bb40	-0.4389286
179	0x3e3ba966	0.18326339
180	0xbed8a408	-0.42312646
181	0xbe7b82aa	-0.24561563
182	0x3d64e778	0.05588481
183	0xbf117a75	-0.5682748
184	0xbf04614f	-0.5171098
185	0x3e8197f0	0.25311232
186	0x3e4aac4f	0.19792293
187	0x3eb5fd19	0.3554466
188	0xbdd079a8	-0.10179454
189	0xbdaa6c38	-0.08321422
190	0x3e9f84e3	0.31156072
191	0xbea3639c	-0.31911933
192	0xbeafe9b8	-0.34358
193	0xbeebefa9	-0.46081284
194	0x3d2641ce	0.0405901
195	0xbeaf03c5	-0.34182563
196	0x3e996f6a	0.29967815
197	0xbe88490d	-0.26618233
198	0xbdc9b90e	-0.098497495
199	0xbea36a60	-0.31917095
200	0xbd067dc8	-0.032834798
201	0x3eaba96f	0.33527705
202	0xbed8ffad	-0.42382565
203	0x3ed7e934	0.42170107
204	0xbda7e7d4	-0.081985146
205	0x3eaec1cf	0.3413224
206	0x3e080549	0.13283266
207	0x3e44dc62	0.19224694
208	0xbeab1652	-0.33415467
209	0xbcc7107e	-0.024299856
210	0x3e9bd21e	0.30433744
211	0xbe442b56	-0.19157156
212	0x3d9db324	0.07700184
213	0x3d0713db	0.03297792
214	0xbe72a076	-0.23694023
215	0xbf072191	-0.52785593
216	0xbdc4cbdf	-0.09609198
217	0xbe02645c	-0.12733597
218	0x3d912816	0.07087724
219	0xbea2dcaa	-0.31808978
220	0x3d556c2d	0.052105118
221	0xbd8dd08e	-0.06924544
222	0x3dd45dde	0.10369466
223	0x3e8ee0de	0.27905935
224	0xbf10d960	-0.5658169
225	0xbe73b13c	-0.23798078
226	0xbec8b0ff	-0.39197537
227	0x3cd1d09c	0.025612168
228	0xbf13de50	-0.57761097
229	0xbd3df6ae	-0.04637783
230	0xbcdcc0a0	-0.02694732
231	0xbe5126e9	-0.20425
232	0x3d0958ab	0.033531826
233	0xbbfa56c0	-0.007639736
234	0x3be50a74	0.0069897715
235	0xbed73513	-0.4203268
236	0xbe9f23a8	-0.3108189
237	0x3e228470	0.15870833
238	0xbe0823c2	-0.1329489
239	0xbe5cff11	-0.21581675
240	0x3b018670	0.001976397
241	0x3e91324b	0.28358683
242	0xbd46b6b6	-0.04851409
243	0x3f31ae04	0.6940615
244	0x3d5ab17e	0.053391926
245	0xbe6154ba	-0.22004977
246	0x3f1bcecf	0.6086244
247	0x3ed94451	0.42434934
248	0xbd5bf328	-0.05369869
249	0x3db27d4c	0.08715305
250	0x3d43870c	0.047736213
251	0x3bf052a0	0.0073340684
252	0xbe200ab7	-0.15629087
253	0x3e6270d9	0.2211336
254	0xbed99b75	-0.42501417
255	0x3d35d666	0.04439392
